{"config": [{"config": {"name": "reshape_1", "trainable": true, "input_dtype": "float32", "batch_input_shape": [null, 16, 8], "target_shape": [1, 16, 8]}, "class_name": "Reshape"}, {"config": {"activation": "relu", "nb_filter": 50, "activity_regularizer": null, "nb_row": 3, "name": "convolution2d_1", "b_constraint": null, "subsample": [1, 1], "b_regularizer": null, "trainable": true, "border_mode": "same", "bias": true, "W_regularizer": null, "init": "glorot_uniform", "dim_ordering": "th", "W_constraint": null, "nb_col": 3}, "class_name": "Convolution2D"}, {"config": {"pool_size": [2, 2], "trainable": true, "border_mode": "valid", "dim_ordering": "th", "name": "maxpooling2d_1", "strides": [2, 2]}, "class_name": "MaxPooling2D"}, {"config": {"activation": "relu", "nb_filter": 40, "activity_regularizer": null, "nb_row": 3, "name": "convolution2d_2", "b_constraint": null, "subsample": [1, 1], "b_regularizer": null, "trainable": true, "border_mode": "same", "bias": true, "W_regularizer": null, "init": "glorot_uniform", "dim_ordering": "th", "W_constraint": null, "nb_col": 3}, "class_name": "Convolution2D"}, {"config": {"pool_size": [2, 2], "trainable": true, "border_mode": "valid", "dim_ordering": "th", "name": "maxpooling2d_2", "strides": [2, 2]}, "class_name": "MaxPooling2D"}, {"config": {"name": "dropout_1", "trainable": true, "p": 0.2}, "class_name": "Dropout"}, {"config": {"name": "flatten_1", "trainable": true}, "class_name": "Flatten"}, {"config": {"activation": "relu", "output_dim": 400, "activity_regularizer": null, "name": "dense_1", "b_constraint": null, "b_regularizer": null, "trainable": true, "bias": true, "input_dim": 320, "W_regularizer": null, "init": "glorot_uniform", "W_constraint": null}, "class_name": "Dense"}, {"config": {"name": "dropout_2", "trainable": true, "p": 0.2}, "class_name": "Dropout"}, {"config": {"activation": "relu", "output_dim": 250, "activity_regularizer": null, "name": "dense_2", "b_constraint": null, "b_regularizer": null, "trainable": true, "bias": true, "input_dim": 400, "W_regularizer": null, "init": "glorot_uniform", "W_constraint": null}, "class_name": "Dense"}, {"config": {"activation": "softmax", "output_dim": 26, "activity_regularizer": null, "name": "dense_3", "b_constraint": null, "b_regularizer": null, "trainable": true, "bias": true, "input_dim": 250, "W_regularizer": null, "init": "glorot_uniform", "W_constraint": null}, "class_name": "Dense"}], "class_name": "Sequential", "keras_version": "1.2.2"}